backend/carbon_emission_model.pth (torch, 44308 bytes, 5 tensors)

layer_1.weight f4 [128, 15]
00000000: 907b 39be f412 b8bc 7ee3 06bf c720 7abe
00000010: fa2b b6bd d361 21be 9fbe 5cbe f0c4 4e3e
00000020: 6830 2f3f c3c8 023d a3c0 f13d efbf ed3e
00000030: 1d66 b93e 9ce3 e63d 63a6 eabd 67b2 f3bd
00000040: 4af7 d33d 39de 6ebd 2c5a 4cbe 5927 dfbc
00000050: 824e 27be 2d0d f8bc 46ec 44be daaa a03d
00000060: f9db 95be 473b 60be a63f 24be 37a2 6ebe
00000070: 93d9 63bd ecef aebe 29d8 433d 57d5 f8bd
00000080: d7a9 863e 1170 1a3c f5c1 e4bd 55a2 c43e
00000090: e7bc b7be 51e2 b93e 9f6f 943d 34aa 56be
000000a0: 8d2c 0d3d e8b2 e9bc fe9c ccbd e101 623e
000000b0: 62ca b43e 5a4e 51be 1e7f 3e3d bd88 3ebd
000000c0: 4c72 203d 7bf0 7ebe 5c55 afbe 947a 34be
000000d0: ad0f 95be d002 e83d 7419 6ebc 0d80 1d3c
000000e0: 6c4e 92bc ce5f c7bd e839 d63d b2a9 8dbe
000000f0: 9b96 0e3e f2ef 77be 850f 90be 4f98 07bf
00000100: bf17 373e 1dcf 3f3e 4b25 c3be 4fc5 80bf
00000110: 181a febd b09a dd3e 270c 4e3f a11c 0dbf
00000120: fac0 473f 11c3 1cbf 9f91 0ac0 6295 9fbf
00000130: 8f14 91bf b67c 27bf 27ed 863e 039d 2e3f
00000140: 88aa a5bf d201 8abe d90e 09bd 1647 8bbf
00000150: 17b8 143f 6ed8 2abf bb9b 153f 29c3 98bf
00000160: 9765 853f a350 41bf 21c2 9d3e f4de 9a3d
00000170: fd8c 1f3e 1fed c63c 7e78 efbe 5087 e7bd
00000180: e370 363f f4a8 73be 9922 53be 0e45 58bf
00000190: 9e5a 17be a1b8 383e 7cd0 28bd c5c6 51be
000001a0: 2d34 b9bd 929a 34be f94f 60be c297 11be
000001b0: fb66 67be cd59 28be 6825 843e 3ac0 473d
000001c0: c2f3 a23d 0299 76be eda5 2dbe e302 b0bd
000001d0: 1960 253d bba5 68be 88d7 e3bd 0e49 1ebe
000001e0: 876b a1be 21f2 20bf 0daf 9bbe 18a2 f8be
000001f0: a340 89bf 079e cebf cf6d 23be 4891 19bf
00000200: cf32 3f3f 5999 9ebf e8fa c23d 6402 bcbe
00000210: d24c acbf c694 783f 2a9e 1a3d 74b9 18be
00000220: fe6f 68bf 1e5f 60bd 6889 823e fc61 82bd
00000230: 1511 5a3f 4b14 d6bf cc31 d03e d468 f5be
00000240: 4661 d63e 5db5 24bd c8b9 4d3d a9a6 52bf
00000250: 8169 083d 5bd5 3abe 892d 343f 2988 17be
00000260: f66f f0be 57a0 02bf bb83 fc3d a4de e5bc
00000270: 0079 97be f0bb 56be 8043 a1bd 61cf d7be
00000280: b508 323f f90c d13e b7e0 87bd 9885 aebe
00000290: 0f6e 053d 969e fc3e 5c49 cabe cb0f 883e
000002a0: de04 813e 8995 0cc0 b187 63bf 48af 82bd
000002b0: da53 8fbf 46e5 bebe 6b89 83bf 2063 af3e
000002c0: acb9 80bf 18a7 f1bd 627c 5d3f bb24 abbe
000002d0: 193c d1bc 1345 3f3d 89b6 0fbd be40 3cbe
000002e0: f07d 513d b0ab 703d 72ef 1e3d 5c86 08be
000002f0: 4777 19be cb74 0fbd ca00 07be adca 29be
00000300: 1416 a53d f917 0e3e ef3d e9bd 7ee6 9e3d
00000310: 4740 ed3d 0509 68be c290 9bbd 8e6c edbe
00000320: 66ad e4be 2b9c 0bc0 eb63 473f e642 923e
00000330: a8a4 173f 26b8 33c0 247d 4ebe 6ee5 54bf
00000340: dcff b5be 4cd5 d53e e773 f33e 83e2 16be
00000350: 85d6 b3bf 4a88 05bd 1c9c f9bd 5c45 443f
00000360: 9040 bebd 169d 5c3e 35a7 6f3e 6533 0dbf
00000370: 1a2b d6be db7d 403f d0fd b7bf 944f 52be
00000380: 0877 f3bf 1572 643f 62a1 0c3f f67f 00bf
00000390: 895a 9abf f1c6 c6bf 6a65 0dbf a0ee cc3e
000003a0: e901 bcbd 0bbb 013f 5f02 52bf 27e4 f8be
000003b0: 77b8 7ebf e66d 7dbf 533d 21bf b6c2 21bf
000003c0: a0e2 09bb ff01 643c c05c 5dbd d87e 953d
000003d0: db4e 32be 3918 903e effa f1bf 8c5d 883c
000003e0: 74b5 20bd 6e47 1b3f 9ce3 8fbd 9751 06bd
000003f0: fe84 5abb 67c6 0cbe ea21 05bd 160d a4be
-0.18113542 -0.022469975 -0.52690876 -0.24426566 -0.088951066 -0.15759973 -0.21557091 0.20192313
0.6843324 0.031929743 0.11804321 0.46435496 0.3621072 0.11273882 -0.11457517 -0.11899262
0.10349901 -0.058317397 -0.19956273 -0.027240442 -0.16338542 -0.03027972 -0.19230756 0.07845087
-0.29269388 -0.21897613 -0.16039905 -0.23304068 -0.055627417 -0.3416742 0.04781357 -0.12150066
0.26301453 0.009426133 -0.11169807 0.384051 -0.3588631 0.36305478 0.072478525 -0.20963365
0.034466315 -0.028527692 -0.099908814 0.22071029 0.35310656 -0.20440045 0.046507947 -0.046517123
0.039171502 -0.24896424 -0.34244812 -0.17624885 -0.29113522 0.113286614 -0.014532436 0.009613049
-0.01785966 -0.0973507 0.104602635 -0.2766853 0.13924639 -0.24212626 -0.2813684 -0.5296678
0.17880152 0.18731351 -0.3811439 -1.0060214 -0.12407321 0.4328208 0.80487293 -0.5512181
0.78028834 -0.6123515 -2.165138 -1.2467463 -1.1334399 -0.6542467 0.26352808 0.6820833
-1.2942667 -0.26954514 -0.033461425 -1.0881069 0.580934 -0.66736495 0.5844075 -1.1934558
1.0421628 -0.75513667 0.3081217 0.07562056 0.15581127 0.02428299 -0.46771616 -0.11305106
0.71266 -0.23794919 -0.20618667 -0.8448037 -0.14780661 0.1803918 -0.04121445 -0.20485981
-0.09043155 -0.17637089 -0.21905507 -0.14218047 -0.22597878 -0.16440506 0.2580979 0.048767306
0.07956649 -0.24081805 -0.16957827 -0.085943006 0.04037485 -0.22719471 -0.11125094 -0.15457556
-0.3152735 -0.6286946 -0.3040699 -0.48561168 -1.072285 -1.6141976 -0.15959857 -0.59987307
0.746869 -1.2390548 0.09520513 -0.36720574 -1.3460944 0.9710201 0.037748493 -0.14914495
-0.90795887 -0.05477821 0.25495458 -0.06366345 0.85182315 -1.6724943 0.40662992 -0.4793154
0.4187109 -0.040212024 0.050226003 -0.82285553 0.03330374 -0.18245451 0.7038198 -0.14798035
-0.4696042 -0.5102591 0.12329813 -0.028060265 -0.29584503 -0.2097013 -0.07874203 -0.42150405
0.69544536 0.4083021 -0.06634658 -0.340863 0.032575663 0.4933974 -0.39509094 0.2657455
0.25199026 -2.196627 -0.88878924 -0.063810885 -1.1197464 -0.37284297 -1.0276312 0.34255314
-1.0056663 -0.11799449 0.8651792 -0.3342646 -0.025541352 0.046696734 -0.03508619 -0.18384072
0.051145494 0.058757484 0.03880257 -0.13332504 -0.14986907 -0.03502349 -0.13183895 -0.16581221
0.08060852 0.13876332 -0.11388766 0.07758807 0.115845256 -0.2265969 -0.0759597 -0.46371883
-0.44663543 -2.1814067 0.7788684 0.28566664 0.5923562 -2.8081145 -0.20164925 -0.8316258
-0.35546768 0.41764295 0.47549364 -0.14734845 -1.4049841 -0.03260068 -0.121879786 0.76668334
-0.09289658 0.21544299 0.23403628 -0.55156547 -0.4182976 0.7519204 -1.4374332 -0.20538169
-1.90207 0.89236575 0.5493375 -0.5019525 -1.2058879 -1.5529462 -0.5523287 0.40025806
-0.09180052 0.5067603 -0.8203487 -0.48611566 -0.9950022 -0.98995817 -0.629842 -0.6318773
-0.002103962 0.0139164915 -0.05404353 0.07299584 -0.17412893 0.2814348 -1.8904704 0.01664617
-0.039235547 0.6065587 -0.07025835 -0.032792654 -0.003334343 -0.1374756 -0.032503046 -0.32041234

layer_1.bias f4 [128]
00000000: 8ed5 bebd 8dbb 93be b6aa f8be 76ad 26be
00000010: 0966 15bf 9955 1abf 433c cc3e 26be dbbd
00000020: fcad 583c 3263 39bf 4e79 1fbf 5a04 52be
00000030: 3b0d 9cbe c17b 4dbe d33d 57bf 681d 59bc
00000040: 2b84 1e3f aa0d e2be 0053 cf3d 040e 11bf
00000050: 5f93 8ebf 67dc 6a3d b8eb 4f3f 6638 85bf
00000060: 3600 8dbd 8fab 48bd 1374 acbe 2b54 30bf
00000070: 986b 903e db0b c2be 8cd6 74be f0dd 8cbe
00000080: f76a 2b3f 7fc2 9fbe 4ef9 3fbf df72 33bf
00000090: f178 ccbe 9a10 9cbd 936e 473d 57c3 b7be
000000a0: bc6e 52be 9d75 533f a2d5 af3e b129 9fbe
000000b0: 7c8a bfbd ab63 82be b299 a4be 9c7e 81bd
000000c0: b59d 5b3f f3c5 963e 44c0 81be 15e2 2ebf
000000d0: 34de 5abe e023 b13e c3f0 85be f3df ecbb
000000e0: fbb5 92be 9578 08bf 0186 c4bd 8160 5dbe
000000f0: 4a96 96be d7ad a8be 499c d2be 7df3 babe
00000100: 48bf abbe ba19 dcbc 8feb 82be b57c 0dbe
00000110: 901d e6bd f8b5 823d f8a9 dcbe 5e6f 23be
00000120: e56d e63e b4d8 93be 8019 9dbf 0b47 52be
00000130: c6f9 37be 9409 a1bd fca0 b0be 83cc e7bd
00000140: 9a73 d7be 6c8f 2abf b771 f3be 7395 27be
00000150: aa4e 21bf f402 babe bf9c 9cbe a571 06bf
00000160: fe1a 39bf 8970 1cbf 320b 1ebe bf65 a1be
00000170: 4032 56bf 57f9 42be 355b 15bf bc78 9dbe
00000180: 3169 2e3e c57c 70bf 235a 40be 83b5 16bf
00000190: 709b 793e 7c09 06bf 651f ff3d cc3d 49be
000001a0: 5270 c6be 297e abbd 4f6a 96be 50e4 b6be
000001b0: eb4d ec3d 3859 593e d5eb 04bf 681e f33e
000001c0: cb0c 1bbf cb26 063f 9e47 50bf 719d 82bf
000001d0: 8729 6bbe 2abf 44bf 39e8 56bd 4bcc ab3e
000001e0: c98f b6be 45ff c9be d703 52bf 726e 8d3e
000001f0: bb74 bd3e 9055 1ebe a04a a2be 77f8 25bc
-0.09318076 -0.28854027 -0.48567742 -0.16277108 -0.5835882 -0.6028686 0.39889726 -0.10729627
0.013225075 -0.72416985 -0.6229447 -0.20509472 -0.30478844 -0.2006674 -0.8407871 -0.01325164
0.6192042 -0.4415105 0.10123253 -0.5666201 -1.1138724 0.0573391 0.81219053 -1.0407836
-0.06884806 -0.048991736 -0.33682308 -0.6887843 0.28207088 -0.3789967 -0.23909968 -0.27513075
0.6696009 -0.31203076 -0.74989784 -0.70097154 -0.3993602 -0.07620354 0.048689436 -0.3589122
-0.20550054 0.8260134 0.34342676 -0.31086496 -0.09352586 -0.25466666 -0.3214851 -0.06322977
0.85787517 0.29447898 -0.25342 -0.68313724 -0.21373826 0.34597683 -0.2616025 -0.0072288453
-0.28654465 -0.53308994 -0.09595872 -0.21618845 -0.29411536 -0.3294513 -0.4113486 -0.36513892
-0.33544374 -0.026867736 -0.25570342 -0.13817103 -0.11236107 0.06382364 -0.43098426 -0.15960452
0.45005718 -0.2887627 -1.2273407 -0.20534913 -0.17966375 -0.07863155 -0.3449782 -0.113183044
-0.42080384 -0.66625094 -0.47547695 -0.16365604 -0.63010657 -0.36330378 -0.30588338 -0.5251716
-0.7230681 -0.61109215 -0.15433958 -0.3152294 -0.83670425 -0.19040428 -0.58342296 -0.30756176
0.17032315 -0.93940383 -0.18784384 -0.58870715 0.24375701 -0.5235822 0.1245716 -0.1965248
-0.3875757 -0.083736725 -0.29377982 -0.35721064 0.11538299 0.2122544 -0.5192235 0.47484136
-0.60566396 0.52402943 -0.8135928 -1.0204297 -0.2296506 -0.76854193 -0.05246756 0.335543
-0.35656574 -0.39452568 -0.8203711 0.27623326 0.3700312 -0.15462327 -0.3169756 -0.010130039

layer_2.weight f4 [64, 128]
00000000: 05a2 a3bc 7e26 943d 8e0d ed3d a40e 483d
00000010: f13b 8a3f dc6f 74bf baac 2bbe 036f 423b
00000020: bc36 bbbd bed5 953f 8701 d03c 3780 1e3e
00000030: a8a2 523c ea6c b93d c712 943d f628 4abf
00000040: a73b 19be e5b2 7cc0 a060 e23d bf53 fcbc
00000050: e9f6 af3d 5129 4ebe fe89 83be 2282 c0bf
00000060: 9383 5bbd 3ad1 883d ed6c 1f3d f6d1 ab3f
00000070: 2450 e73d caee 6e3e 538e 7d3d b2be 4fbd
00000080: 6597 323e a05c 8fbb e96b 9c3e cc6d 83bc
00000090: 6c12 c2bd 9a8c aa3d e8ba cbba 4a18 85bd
000000a0: 31be f4bd ff43 2ebf 12bb d9bd 58a8 b2bd
000000b0: 5093 b5bd 3b29 d83d 0f14 5e3c d235 323f
000000c0: 4f1f 7f3d 0de1 893d f707 a8be 3d86 213f
000000d0: f3e1 c53d 45e9 913d fd7e c03d 5834 d7bc
000000e0: b4df 7c3e f623 423d 2579 8a3d 4aa8 bbbe
000000f0: 3af6 b9bd 97b3 8cbf 2ab3 a23d 2d84 363e
00000100: b246 9ebd d450 5b3c 6637 5e3c 5af8 563d
00000110: 061f e13d deea b8bd 8d91 33bd 0abf a3bd
00000120: e6e8 2f3e ff73 703e 0d92 db3e 3dd3 703d
00000130: 226c 7d3d 86b5 5b3e fed7 653e d93f 5bbd
00000140: 963e 0e3c aceb 8cbd 9c37 603d 75fd 993c
00000150: 2901 3a3d 5704 9d3d 1a0e cbbd 626a 073e
00000160: c5d7 9bbe 2f3d 2cbe 644d efbe 7741 9c3d
00000170: bd6d 72bd b382 66bd 7543 0ebe a66e 9cbc
00000180: 091e 9dbd ea4d 763d c2d1 3c3d acf7 823e
00000190: 5956 293d 8d8d c93d 9d97 1abd 687b 10bd
000001a0: bd84 7ebe 96b2 d5bc d37c d33d 11e4 133e
000001b0: 4433 3dbd 80d6 743c a31c 413e f41a 283d
000001c0: 8b84 f3be bcaa dc3c c3ee 223d dac2 913e
000001d0: 9a2a f43d 826f 90bf 8a6c efbd df47 fa3d
000001e0: 235b 813d 23b2 fbbc 99f3 043d ffa5 eabd
000001f0: a99a 053e b071 06bf cd54 023e 57e4 3fc0
00000200: a6dc 90bc f1b3 c53c e944 c0bd f471 a9bb
00000210: 7001 b3bd 9b67 7dbd 83b6 bcbd b5b5 abbd
00000220: c3ad 39bd 29bc 0cbd 7198 bdbd 6b17 5e3d
00000230: 4f3e 0dbe cb11 12be f882 d5bd a33e fabc
00000240: a95a 85bd 25ed 8bbc ef24 9dbc fedd 9ebd
00000250: f94c 40bd 0ea1 c83a 2f40 bf3c 537b e43c
00000260: c5ca 5e3d 33e6 debd 9105 f5bd c14c afbc
00000270: 2c28 c7bd 1802 34bb b258 6ebd c7b7 4a3c
00000280: 785f c4bc bd10 74bd f9c4 66bd 2b8c 1ebd
00000290: 820c 8fbd 1d12 923d d46a 03be 8754 4fbc
000002a0: 2ce9 eabd 467c febd 90a6 94bc fc4d 89bc
000002b0: f41f 383b a6b3 b53c a8f3 88bd 5473 84bd
000002c0: 02a1 98bd 8102 8bbd 6b8d 39bd 6b0a 9a3d
000002d0: 0304 ffbb f072 e5bd 233c 71bd 1c77 dfbd
000002e0: a0e1 65bc 3b44 05be 7198 17bd 88b9 fbbd
000002f0: a83e df3c e3c2 233c 6936 79bd 5c86 10be
00000300: 7f74 67bd 4253 acbd a490 d43c 6e7b edbd
00000310: 8532 143d c05e 0abe 1ada d8bd a489 d9bd
00000320: 218c 8cbc 62f8 7dbd 57b6 0ebe 7dc4 4ebd
00000330: c4d8 c9bd 854d 11be 2921 40bd 1302 013d
00000340: 3278 92bd 3f20 c2bd 1fb8 77bd c5c7 8fbd
00000350: 560d e8bd b472 7bbd e66d 9a3c 2c54 b1bd
00000360: 5a46 80bc 7455 8ebd a7b2 aabd b46c 13be
00000370: e8ff 5d3c 7643 b03d 4c64 7cbd 78e1 6fbb
00000380: f109 4f3c 37e0 82bc 5557 47bc f13e 13be
00000390: 406f 12be 1fd9 02be f765 04bd d793 9cbd
000003a0: 206a 02be ab0a d2bd c6d7 a6bd f4ce 40bd
000003b0: f3eb 0bbd 4938 b1bd d7bd c1ba f5d3 bebd
000003c0: 4ef2 a8bd 97d6 f43b deaa 8b3c fe6b 8bbd
000003d0: 52c5 fcbd e502 d5bd 2c68 383c 0477 ffbb
000003e0: 0bfc 6fbc d415 bdbd 9f4c 0cbe 24ca 0bbe
000003f0: 6659 b4bd d82a 67bd b805 cbbd 9081 04be
-0.019974718 0.07233904 0.11574851 0.048842087 1.0799543 -0.95483184 -0.16765109 0.002966822
-0.09141299 1.1705854 0.025391353 0.15478598 0.012856163 0.09053977 0.07230144 -0.7896875
-0.14964162 -3.9484189 0.11053586 -0.030801652 0.08592016 -0.20132948 -0.25691217 -1.5039713
-0.053592276 0.06680532 0.03892224 1.342345 0.112945825 0.23333278 0.06190331 -0.05071897
0.17440565 -0.0043750554 0.3055108 -0.016043566 -0.0947617 0.08327599 -0.0015543373 -0.064987734
-0.11950339 -0.68072504 -0.10631384 -0.08723515 -0.08865988 0.10554739 0.013554587 0.69613373
0.062285718 0.06732378 -0.32818577 0.63095456 0.09662237 0.07124571 0.09399221 -0.026270077
0.24694711 0.047397576 0.06761388 -0.36651832 -0.09080167 -1.0992306 0.07944329 0.17823859
-0.07728328 0.01338597 0.013563013 0.05248294 0.109922454 -0.09029172 -0.04383998 -0.07995422
0.17178687 0.23481749 0.42884865 0.058795203 0.0618707 0.21455964 0.22445676 -0.053527687
0.008681914 -0.06880888 0.054740533 0.018797616 0.045411263 0.076668434 -0.09914799 0.13224176
-0.30438057 -0.16820215 -0.46738732 0.07629674 -0.059186686 -0.05627699 -0.1389292 -0.01909573
-0.076717444 0.0601329 0.04609848 0.25579584 0.041342113 0.09841452 -0.037742246 -0.03527394
-0.24855323 -0.026086133 0.10326543 0.14442469 -0.04619147 0.014943719 0.1885858 0.04104133
-0.4756206 0.026936881 0.039778482 0.28468972 0.11922188 -1.128403 -0.11690624 0.122207396
0.06316211 -0.03072459 0.032458875 -0.114574425 0.1304728 -0.52517223 0.12727661 -2.9983118
-0.017683338 0.024133654 -0.093881436 -0.005171055 -0.087405086 -0.061866384 -0.09214499 -0.08384267
-0.045331728 -0.03435913 -0.092575915 0.054221552 -0.137933 -0.142646 -0.10425371 -0.030547446
-0.06511433 -0.017080853 -0.01918265 -0.077571854 -0.046948407 0.0015306787 0.023346035 0.027890837
0.054392595 -0.10883751 -0.11963952 -0.021398904 -0.09724459 -0.0027467068 -0.058190055 0.0123729175
-0.023971304 -0.059586275 -0.05634019 -0.038707893 -0.069848076 0.07132361 -0.1283372 -0.01265443
-0.11470255 -0.12426047 -0.01814583 -0.016760819 0.0028095217 0.02218039 -0.06687099 -0.064673096
-0.07452585 -0.06787587 -0.045300882 0.07521518 -0.0077824607 -0.11203563 -0.05889524 -0.1091139
-0.014030844 -0.13014309 -0.037010614 -0.12291247 0.027251557 0.009995195 -0.060842905 -0.14113754
-0.056507584 -0.08414318 0.025947876 -0.11595808 0.03618099 -0.13512707 -0.105884746 -0.10621956
-0.017156662 -0.062004454 -0.13936745 -0.050480355 -0.09855798 -0.14189728 -0.046906624 0.03149612
-0.07151832 -0.09478807 -0.060478326 -0.07020525 -0.11330669 -0.061388686 0.018851232 -0.08658633
-0.015658546 -0.06949893 -0.083348565 -0.14396936 0.013549782 0.08606617 -0.061619088 -0.0036602896
0.012636648 -0.015976055 -0.012166818 -0.14379479 -0.14300251 -0.12778138 -0.032323804 -0.07645386
-0.12735796 -0.10255941 -0.08146624 -0.047072366 -0.034160566 -0.08653314 -0.0014781308 -0.09317771
-0.08249341 0.00747187 0.01704925 -0.06807707 -0.12342323 -0.10400943 0.011255305 -0.00779617
-0.014647494 -0.09232679 -0.13701104 -0.1365133 -0.08806114 -0.056437343 -0.099132 -0.12940049

layer_2.bias f4 [64]
00000000: 3085 30be 27b4 80bd 810f 703e 03d0 c3bd
00000010: 4124 a1bd da26 17be 9fd8 b6bd b2a0 0cbe
00000020: 8b30 eabc fd9c 2ebe 8e16 c4bd 7268 ffbd
00000030: 21dd f33b 40e2 92bd 1d74 1abc ee4c d4bd
00000040: c919 4a3c 2148 95bd 8d6d 01be 2815 4bbd
00000050: 1192 f5bd cbdd bbbd ef98 2ebe 4796 d0bd
00000060: a546 1bbe 74f8 e83c ad4f 05be f27e 53be
00000070: 3c25 f8bb 7023 ffbd efd9 6fbd 10b7 b1be
00000080: b2ed 96bd c8b4 883c 14e8 edbd d543 94bc
00000090: 2365 6cbd 3169 833c cde9 b8bd af87 8bbd
000000a0: b242 a9bd 9200 59bd 7053 f4bd 7743 15be
000000b0: f1a2 04be 8939 07be f40d edbd 6450 9ebd
000000c0: 62ae c2bd ce00 40be 4b94 d9bd 1aaf 4abd
000000d0: 633b 00be 694d fdbd 978b d8bd b47e 01be
000000e0: 1757 d7bc 6dbc 69bd 0337 19bd 2296 64bd
000000f0: 4140 cabd 44dc bebd f78c 02bd d754 bb3c
-0.17238307 -0.06284361 0.23443414 -0.095611595 -0.07868243 -0.14760914 -0.08928036 -0.13733175
-0.0285876 -0.17052074 -0.095746145 -0.12471093 0.007442132 -0.0717206 -0.009427098 -0.10366236
0.012335249 -0.07289148 -0.12639447 -0.049580723 -0.119907506 -0.09173163 -0.17050527 -0.10184913
-0.15163668 0.028438784 -0.13018675 -0.20653895 -0.007572798 -0.12457931 -0.058557447 -0.34709978
-0.073695555 0.016687766 -0.11616531 -0.018098751 -0.05771364 0.01604137 -0.09028969 -0.06812989
-0.08264674 -0.05297906 -0.11929977 -0.14576517 -0.12952782 -0.13205542 -0.11574927 -0.07730177
-0.09505917 -0.18750307 -0.10623988 -0.049483396 -0.12522654 -0.123682804 -0.105735 -0.1264599
-0.026286645 -0.057064462 -0.03740598 -0.05580724 -0.09875537 -0.09319356 -0.031872716 0.022867603

layer_3.weight f4 [1, 64]
00000000: 2c75 083d 3b06 4a3d 9529 dfbd 1d2b 81bd
00000010: 64cc d0bc 304d f53b fc2f 5cbd ea89 23bd
00000020: 1ae8 13bd 1fa6 fd3e 51ea 20bc 0473 693d
00000030: 4b2a fd3c 4dfb 2cbd b70b db3c 1dcd 0bbd
00000040: 2eba 1e3d bfe1 493b 0629 853c 03f4 eb3c
00000050: 838e 753d f78a bfbb 1bc2 173d 841f 003d
00000060: a44a 103d 51bc ee3c df06 41bd a702 253d
00000070: 0361 1ebd 37d9 ec3c 5084 e23c bfc7 cf3d
00000080: 9aa2 21bd f372 3dbd 5890 ee3c 2897 c83c
00000090: 59c8 053d c5e4 3bbc f8e9 f33c f57a f73c
000000a0: 0b8c ef3c 7879 fd3c 254b 053d a127 55bb
000000b0: 6ff9 083e f1ca 0f3d ca24 49bd 5ff8 6abb
000000c0: 86d6 69bc 29e5 053d 75db 80bc c9a6 e83c
000000d0: 951f 083d 6126 e2bc c3d4 ea3c 3efd 3e3d
000000e0: 2061 2b3c ebbf 71bd b0e2 d43c 728a f43c
000000f0: 0e03 0abc 185d 20bd f374 4d3d 1fb2 b43d
0.03331487 0.049322348 -0.10896603 -0.06307051 -0.025488086 0.007486008 -0.0537567 -0.039926447
-0.03611002 0.49540803 -0.00982149 0.056994453 0.030903956 -0.042231847 0.026738985 -0.03413116
0.038751774 0.0030804721 0.016254913 0.028802877 0.059950363 -0.0058454233 0.037050348 0.031280056
0.035227433 0.02914253 -0.047125693 0.040285733 -0.038666736 0.02891217 0.027650982 0.101455204
-0.03946171 -0.046252202 0.029121563 0.02448614 0.03266177 -0.011468117 0.029774651 0.030209998
0.029241582 0.03094171 0.032542367 -0.0032524841 0.13376401 0.03510565 -0.04910735 -0.0035853607
-0.014272338 0.032689247 -0.015729645 0.028399842 0.033233244 -0.027606191 0.028665906 0.04662823
0.010460168 -0.059020918 0.025987 0.029851172 -0.00842358 -0.03915128 0.05016036 0.088230364
